…
model.add(Conv2D(filters=32, kernel_size=3, padding='same', activation='relu'))
model.add(MaxPooling2D(pool_size=2))
model.add(Dropout(0.25))

model.add(Conv2D(filters=64, kernel_size=3, padding='same', activation='relu'))
model.add(Conv2D(filters=64, kernel_size=3, padding='same', activation='relu'))
model.add(MaxPooling2D(pool_size=2))
model.add(Dropout(0.25))

model.add(Flatten())
model.add(Dense(512, activation='relu'))
model.add(Dropout(0.5))
model.add(Dense(10, activation='softmax'))

model.summary()

Layer (type)                 Output Shape              Param #   
=================================================================
conv2d_4 (Conv2D)            (None, 32, 32, 32)        896       
_________________________________________________________________
conv2d_5 (Conv2D)            (None, 32, 32, 32)        9248      
_________________________________________________________________
max_pooling2d_4 (MaxPooling2 (None, 16, 16, 32)        0         
_________________________________________________________________
dropout_3 (Dropout)          (None, 16, 16, 32)        0         
_________________________________________________________________
conv2d_6 (Conv2D)            (None, 16, 16, 64)        18496     
_________________________________________________________________
conv2d_7 (Conv2D)            (None, 16, 16, 64)        36928     
_________________________________________________________________
max_pooling2d_5 (MaxPooling2 (None, 8, 8, 64)          0         
_________________________________________________________________
dropout_4 (Dropout)          (None, 8, 8, 64)          0         
_________________________________________________________________
flatten_2 (Flatten)          (None, 4096)              0         
_________________________________________________________________
dense_3 (Dense)              (None, 512)               2097664   
_________________________________________________________________
dropout_5 (Dropout)          (None, 512)               0         
_________________________________________________________________
dense_4 (Dense)              (None, 10)                5130      
=================================================================
Total params: 2,168,362.0
Trainable params: 2,168,362.0
Non-trainable params: 0.0
_________________________________________________________________